mirror/iut-cse-mlp-keyword/checkpoints/audiomae.pth (torch, 874213 bytes, 64 tensors)

to_patch_embed.1.weight f4 [64, 40]
0	0x3a83606d	0.0010023244
1	0x38d16857	9.9853314e-05
2	0x39d48d34	0.00040540996
3	0xb9a26a80	-0.00030978397
4	0x3bef83f5	0.0073094317
5	0xbc0fdcf3	-0.008780706
6	0x3cf39e85	0.029738674
7	0xbb0356f7	-0.0020040849
8	0xbc5c14c3	-0.013432684
9	0x3bcf8bcd	0.006333804
10	0xbd098657	-0.033575382
11	0xbb8fa79e	-0.004383995
12	0x3c8cd926	0.017193388
13	0xbccfb92f	-0.025356857
14	0x3c0ba567	0.008523322
15	0x3d6f896d	0.05848067
16	0x3d0a3d6b	0.03374998
17	0xbb97be40	-0.004630834
18	0xbc559050	-0.013034895
19	0x3b013afa	0.001971899
20	0x3b137c0e	0.0022504362
21	0x3c894e7b	0.016761055
22	0xbbcfac7a	-0.0063376995
23	0xbb9f8cac	-0.0048690643
24	0x3a44e26d	0.0007510547
25	0x3c776768	0.015100338
26	0xbc14d7ee	-0.009084685
27	0xbc2db90d	-0.010603202
28	0x3ae8defc	0.001776665
29	0xbba1a89f	-0.0049334313
30	0xbb9d201b	-0.004795087
31	0xbbfc322e	-0.0076964116
32	0xbc6eae5b	-0.014567937
33	0xbc1af335	-0.009457399
34	0xbc806655	-0.015673796
35	0xbd077b49	-0.03307656
36	0xbc117280	-0.008877397
37	0x3a927457	0.0011173588
38	0xbd8f8ad8	-0.07008904
39	0xbd47ff1d	-0.04882728
40	0x3c2f3cdb	0.010695661
41	0xba7b80b8	-0.0009594071
42	0x3bfc3093	0.00769622
43	0xbcc0f4ad	-0.02355417
44	0x3b624e13	0.00345314
45	0xbc5f6ae0	-0.013636321
46	0x3cf47235	0.029839614
47	0xbc53a8a9	-0.01291863
48	0xbc1aedfc	-0.009456154
49	0x3cdbccd6	0.026831072
50	0x3dc539af	0.09630143
51	0x3da24599	0.07923431
52	0xbd226544	-0.039647356
53	0x3af91c3e	0.0019005609
54	0xbc01781e	-0.007902173
55	0xbcfb8513	-0.030703103
56	0xbbc21e98	-0.005924057
57	0x3b8d7ec7	0.0043180916
58	0xbc4f06ff	-0.012635945
59	0xbc0a8700	-0.008455038
60	0xbc3ee560	-0.011651367
61	0xbbfe4a8c	-0.0077603515
62	0x3a884cdd	0.0010398884
63	0xbc5e4ab2	-0.013567613
64	0xbc4f816d	-0.012665135
65	0x3bac41ae	0.005256853
66	0x3b89e26e	0.0042079007
67	0xbc4cd0f6	-0.012500992
68	0xbc279071	-0.010227309
69	0xbbf2a2b8	-0.0074046515
70	0xbc2892b2	-0.010288881
71	0xbc459823	-0.012060198
72	0xbc693bea	-0.014235476
73	0xbc135c5a	-0.008994186
74	0xbce1d7bc	-0.02756869
75	0xbb3b0d71	-0.0028541947
76	0xbc811fb1	-0.015762182
77	0xbc486fdb	-0.0122337
78	0xbc053a6c	-0.008131605
79	0x3d3defdc	0.046371326
80	0xbc1f8c30	-0.009738013
81	0x3c53647a	0.012902373
82	0xbbf2fe42	-0.007415564
83	0x3a8a3065	0.0010542987
84	0xbb3f92f0	-0.0029231869
85	0x3b4a5110	0.003087107
86	0x3c2b8104	0.010467771
87	0xbc44493e	-0.011980353
88	0x3c9f89ae	0.01947483
89	0xbdbb2e2d	-0.09139667
90	0x3d266879	0.040626977
91	0xbbfc2d28	-0.0076958127
92	0x3cce4b91	0.025182517
93	0xbb4ad8b0	-0.003095191
94	0xbc81b53b	-0.015833488
95	0x3b2c7bd3	0.0026318922
96	0xbcbc9a8a	-0.023022909
97	0xbd38f2ff	-0.045153614
98	0xbd074ec0	-0.033034086
99	0xbc71789e	-0.01473823
100	0x3b3c4d18	0.0028732475
101	0x3b89594c	0.004191553
102	0xbcecc5cc	-0.02890291
103	0xbcd666b8	-0.026172027
104	0xbabe5bbd	-0.001452319
105	0xbba185e1	-0.0049292897
106	0xbcd83c5c	-0.02639597
107	0xbc67d6e7	-0.014150358
108	0xbc1ca389	-0.009560474
109	0xbc9c4c3a	-0.019079316
110	0xbc9b5674	-0.018962122
111	0xbcdcdcd3	-0.026960766
112	0xbca97636	-0.02068625
113	0x3be49088	0.0069752373
114	0xbce92cec	-0.028463803
115	0xbd0e1a82	-0.03469325
116	0xbc197feb	-0.009368877
117	0xbbf630ce	-0.007513142
118	0xbd167850	-0.036735833
119	0xbb5de3a3	-0.0033857606
120	0x3b1970f7	0.002341328
121	0xbab83af9	-0.0014055661
122	0xbbae9b82	-0.0053285966
123	0xbaa0c1be	-0.0012264771
124	0xbc1a4bb1	-0.00941746
125	0xbcd86915	-0.026417295
126	0xbc9b4340	-0.018952966
127	0x3b830319	0.003998172
128	0xba806eb7	-0.0009798621
129	0x3cd041ff	0.025422094
130	0x3cccccef	0.025000064
131	0x3e011c2d	0.12608404
132	0x3e703249	0.23456682
133	0x3e608b9a	0.21928254
134	0x3d896531	0.06708754
135	0x3d1d4f45	0.038405675
136	0x3ca10e17	0.019660039
137	0x3c2cead3	0.010554033
138	0x3b3f475d	0.0029186823
139	0xbb1fe001	-0.0024394991
140	0x3b543b30	0.0032383911
141	0x3bbd3651	0.0057742973
142	0x3afc52d0	0.0019250754
143	0x39cca64f	0.00039033822
144	0x39874080	0.00025797263
145	0x3b90573f	0.004404932
146	0x3bab2a61	0.005223558
147	0xba8570d0	-0.0010180715
148	0x3b40d020	0.0029420927
149	0x3a95ed1e	0.0011438464
150	0x3a0f9f7d	0.00054787827
151	0x3ac71a62	0.0015190358
152	0x3a68b209	0.0008876627
153	0x3c080c50	0.008303717
154	0x3c4033e8	0.011731125
155	0x3b93c8b5	0.00451001
156	0x3c2b5074	0.010456193
157	0x3c24ae92	0.010051386
158	0x3d1cd882	0.038292415
159	0x3dacd141	0.084383495
160	0xbaca1161	-0.0015416556
161	0x3c3c20b1	0.011482404
162	0xbe19011b	-0.14941828
163	0x3c0b401a	0.00849917
164	0xbbdf74fe	-0.0068193665
165	0x3c0fe189	0.008781799
166	0xbc2b1d03	-0.010443929
167	0x3bc3e554	0.005978266
168	0x3c4c6e19	0.012477421
169	0x3af11520	0.0018393137
170	0x3ba688fa	0.005082247
171	0xbc60af8d	-0.01371373
172	0xbc862c53	-0.016378557
173	0x3cb6840a	0.022279758
174	0xbc511daf	-0.012763425
175	0xbc962d70	-0.018332213
176	0xbb8ae6fa	-0.0042389603
177	0xbc056f9e	-0.008144287
178	0xbc04c6d9	-0.00810405
179	0xbb96e6db	-0.004605157
180	0xbb200562	-0.002441727
181	0xbba598e4	-0.0050536264
182	0xbb9b4c34	-0.0047393087
183	0xbb2ea3af	-0.0026647856
184	0xbb8845ad	-0.0041586966
185	0xbaa90338	-0.0012894636
186	0xbbaf61e0	-0.005352244
187	0xbb8df917	-0.0043326723
188	0x3a1d04fd	0.0005989818
189	0xbb251f10	-0.0025195517
190	0xbb35ba6c	-0.0027729524
191	0xbb085f08	-0.0020808596
192	0xbc8543f5	-0.016267756
193	0xbba33be9	-0.004981507
194	0xbc5d7e16	-0.013518831
195	0xbb394c88	-0.0028274376
196	0x3b87f9cc	0.004149651
197	0xbc33dd21	-0.010978014
198	0xbcc773f3	-0.024347281
199	0xbd10e69f	-0.035376187
200	0x3be82414	0.007084379
201	0x3c92a4eb	0.017900905
202	0xbd0bd5c1	-0.0341394
203	0x3c6b53a7	0.014363206
204	0xbc0ba430	-0.008523032
205	0x3c7192c4	0.014744464
206	0xbbe09933	-0.0068542003
207	0x3dd67dac	0.10473189
208	0xbc892116	-0.01673941
209	0x3c59fb8e	0.013304604
210	0xbcb1d59b	-0.0217083
211	0xbc739ef1	-0.014869438
212	0x3b0f7479	0.0021889491
213	0xbc0abce1	-0.008467884
214	0xbc6fb812	-0.014631288
215	0xbc202b0f	-0.009775891
216	0xbb76b5bd	-0.0037644946
217	0x3ba48ea4	0.005021887
218	0x3bb259f1	0.0054428508
219	0xbc6cddff	-0.014457225
220	0xbc84c0a7	-0.016205145
221	0x3b5c2a54	0.0033594565
222	0x3b8decac	0.004331192
223	0xbc607eef	-0.013702138
224	0xbc04b15e	-0.008098928
225	0xbbdd93ce	-0.0067620045
226	0xbb0b9f13	-0.0021304532
227	0x39a21e63	0.00030921688
228	0xbc84127c	-0.016122095
229	0xbc8086c0	-0.015689254
230	0xbc2b95e5	-0.010472749
231	0xbc4627b2	-0.012094425
232	0xbca08a58	-0.019597217
233	0xbc94f11a	-0.018181372
234	0xbafef89a	-0.0019452751
235	0xbbe4eaca	-0.006985997
236	0xbcd105f9	-0.025515543
237	0xbc88cb88	-0.016698614
238	0xbb93c759	-0.004509848
239	0x3c162b68	0.009165622
240	0xbc520cf1	-0.012820468
241	0x3d7b6712	0.061377592
242	0x3b5974a3	0.0033181093
243	0xbc0c2ce9	-0.008555629
244	0xbc5776aa	-0.01315085
245	0x3cc44a72	0.02396128
246	0x3a843bf0	0.0010088664
247	0xbc4d96fb	-0.012548204
248	0xbcbd701c	-0.023124747
249	0xbc6a7b79	-0.014311665
250	0x3b837619	0.004011881
251	0x3c85a4c5	0.01631392
252	0x3c91073d	0.017703647
253	0xbc928662	-0.017886344
254	0x3c03fdd9	0.0080561275
255	0x3c8e86d8	0.017398283

to_patch_embed.1.bias f4 [64]
0	0x3aaece03	0.0013336543
1	0xbca132cb	-0.01967754
2	0x3c16b135	0.009197523
3	0xbae5425f	-0.0017491094
4	0x3c735c78	0.014853589
5	0xbc3b85ef	-0.0114455065
6	0x3aadb1ab	0.0013251802
7	0x3c851d68	0.016249374
8	0xbc715c26	-0.014731443
9	0x3c1ba931	0.009500788
10	0xbbf77425	-0.0075516873
11	0xbacfb07a	-0.0015845441
12	0xbb1ba8f8	-0.0023751836
13	0x3c3ccd3b	0.01152354
14	0xb90db075	-0.00013512543
15	0x3b1cf376	0.0023948825
16	0xba96bd7f	-0.0011500566
17	0xbaa3cee0	-0.0012497567
18	0x3c77d15d	0.0151256
19	0xbaad22fb	-0.0013209278
20	0xbac72051	-0.0015192126
21	0xbb0570fd	-0.0020361536
22	0x3b623bda	0.0034520538
23	0x3a45bb5d	0.0007542873
24	0xbcd687a1	-0.02618772
25	0x3ade0420	0.0016938485
26	0x3c11b7a1	0.008893878
27	0x3ccf3e90	0.025298387
28	0x3c4615c1	0.0120901475
29	0x3bc923c1	0.0061382954
30	0x3b8ad75e	0.0042370996
31	0xbb268193	-0.0025406822
32	0x3ba5da2f	0.00506141
33	0x3c7da093	0.015480178
34	0xbc0c934f	-0.008580043
35	0x3c7622d9	0.015022957
36	0x3cc19dd2	0.023634825
37	0xbb88a80b	-0.004170423
38	0xbccc3305	-0.024926672
39	0xbbde9ab6	-0.0067933453
40	0xba0f7dda	-0.00054737704
41	0x3c1f7c4e	0.009734226
42	0x3b621e1d	0.0034502812
43	0x3a9c1578	0.0011908254
44	0x395a17dd	0.0002079899
45	0x3c91e72a	0.017810423
46	0xbc66fa14	-0.014097709
47	0xba0cfb3e	-0.0005378014
48	0xbc372f86	-0.011180764
49	0x3be346bf	0.006935924
50	0xbb37c6e9	-0.0028042144
51	0xbc946f97	-0.018119616
52	0xbb2f5251	-0.0026751945
53	0xbabccc77	-0.0014404197
54	0xbad1860f	-0.0015985387
55	0x3c0ed593	0.008717912
56	0x3b8d6f23	0.004316227
57	0x3b7d9424	0.0038693035
58	0xbae4ff0e	-0.0017471032
59	0x3b32255a	0.0027182908
60	0xbcb8c08c	-0.022552751
61	0xbb5d7989	-0.0033794364
62	0x3b66a484	0.0035193274
63	0x3caf697b	0.021412602

layers.0.fn.norm.weight f4 [64]
0	0x3ec2974f	0.38006064
1	0x3ecf8532	0.40531307
2	0x3ddf0299	0.10889167
3	0x3cc28d04	0.023748882
4	0x3e360aab	0.17777507
5	0x3e938df0	0.28819227
6	0x3eb0078e	0.34380764
7	0x3eef997d	0.4679679
8	0x3ed9d9a8	0.4254887
9	0xbb1dbefc	-0.0024070134
10	0xbb12d269	-0.0022403246
11	0x3d9e61a3	0.077334665
12	0x3ed582f6	0.41701478
13	0x3a84c3c3	0.0010129142
14	0x3c34d540	0.011037171
15	0x3ed8d148	0.4234717
16	0x3ee5b4a5	0.44864383
17	0x3ef72bdb	0.48275647
18	0x3ee42b34	0.4456421
19	0x3ed74d93	0.42051372
20	0x3eb1b3d8	0.34707522
21	0x3ec250a5	0.37952152
22	0x3e952b43	0.2913457
23	0x3ef6ffd7	0.48242065
24	0x3ee62639	0.44951037
25	0x3edc510b	0.4303058
26	0x3ed4aec4	0.41539586
27	0x3ecac40f	0.39602706
28	0xbb62f9f6	-0.0034633852
29	0x3a8777ba	0.0010335364
30	0x3eb8c6e1	0.36089233
31	0x3e9014bb	0.28140816
32	0x3ed4315d	0.4144391
33	0x3b4fb3ea	0.003169293
34	0x3c9969fc	0.018727295
35	0x3ee99bfb	0.45626816
36	0x3ece7ff3	0.40331993
37	0x3cf3c6e9	0.029757934
38	0x3efdd8ee	0.49579567
39	0x3ed1a3b8	0.4094522
40	0x3e9663d2	0.29373032
41	0x3e85e1a1	0.26148704
42	0x3b817e51	0.0039518257
43	0x3eca519b	0.39515385
44	0xb7fb9712	-2.999188e-05
45	0x3e2fc8d3	0.17166452
46	0x3ed9db7c	0.42550266
47	0x3e8ccf57	0.27501938
48	0x3e4773eb	0.19477813
49	0x3eb6bcac	0.3569082
50	0x3ee797e6	0.45233077
51	0xbab32023	-0.0013666194
52	0x3e895e1a	0.26829606
53	0x3aa87b1e	0.0012854075
54	0x3e46bdda	0.1940836
55	0x3edca2c1	0.4309292
56	0xba03ee4b	-0.0005032762
57	0x3ec1d7b2	0.37859875
58	0x3efc55a8	0.492841
59	0x3b0ce06b	0.0021496068
60	0x3f0dd55c	0.55403686
61	0x3e87f8b7	0.26556942
62	0x3f0144e9	0.50495774
63	0x3ed2e874	0.41192973

layers.0.fn.norm.bias f4 [64]
0	0x3ceb9693	0.028758323
1	0xbe092ebd	-0.13396735
2	0x3d13bb90	0.036067545
3	0x3d7a9b59	0.061183307
4	0x3c9c1228	0.019051626
5	0xbc8eaf50	-0.01741758
6	0x3d775a0d	0.060388613
7	0x3e107a36	0.1410912
8	0xbd0b2196	-0.033967577
9	0x3b881db0	0.0041539297
10	0x3c110ff4	0.008853901
11	0xbbbabc33	-0.0056987046
12	0xbdacc151	-0.0843531
13	0xbcd3aa84	-0.025838144
14	0x3d34f8e1	0.044182662
15	0x3d5088dd	0.050911773
16	0xbdb73058	-0.08944768
17	0x3dff2bb1	0.12459505
18	0x3dd5f5f9	0.10447306
19	0xbd18a8c3	-0.03727032
20	0xbabb3a33	-0.0014284312
21	0x3ce90f6c	0.028449737
22	0xbc9b17c4	-0.01893223
23	0xbd7e5cb6	-0.062100135
24	0xbccdb31d	-0.025109822
25	0xbc1fe17d	-0.00975835
26	0x3c9a5fb5	0.018844465
27	0x3e08af5c	0.13348144
28	0x3bc1409f	0.005897596
29	0xbcddcb78	-0.02707456
30	0x3d36c33c	0.044619784
31	0xbd1b7426	-0.037952565
32	0x3db78ebf	0.089627735
33	0xbbab7fa4	-0.005233722
34	0xbc9a1391	-0.018808158
35	0x3db95af4	0.09050551
36	0x3da96479	0.08271117
37	0xbd54af93	-0.051925253
38	0xbdae996d	-0.085253574
39	0xbdb0626e	-0.08612524
40	0xbd79f0db	-0.061020713
41	0x3daebd7e	0.085322365
42	0x3b6270a3	0.0034552
43	0xbd53c7dd	-0.051704276
44	0xbb519f22	-0.003198572
45	0x3c09f359	0.008419835
46	0xbdc4a7ae	-0.09602295
47	0xbc9767d2	-0.018482123
48	0xbdbd88dd	-0.0925462
49	0x3d3c76c4	0.0460117
50	0x3c9f15b8	0.019419536
51	0x3bb42b7d	0.0054983483
52	0xbd8184d1	-0.06324161
53	0x3c5d3983	0.013502481
54	0xbcc97826	-0.024593424
55	0x3d9f2815	0.07771317
56	0x3c3e82f1	0.011627899
57	0x3ccdeec3	0.025138265
58	0xbd9b4f92	-0.07583536
59	0x3ce73d34	0.028227426
60	0xbe336b68	-0.17521441
61	0xbcd5fd26	-0.026121687
62	0x3dc8bf85	0.098021545
63	0x3dffc11a	0.12488003

layers.0.fn.fn.proj_in.0.weight f4 [256, 64]
0	0x3e0a4e63	0.13506465
1	0x3bf41a47	0.0074494216
2	0xbd466704	-0.048438087
3	0xbcdb6790	-0.02678278
4	0x3c46c66c	0.012132268
5	0x3de3d781	0.111250885
6	0xbdb9218e	-0.09039603
7	0xbcde2f79	-0.027122246
8	0x3d22c831	0.0397417
9	0xbcfb5591	-0.03068045
10	0x3a6fbe3a	0.00091454724
11	0x3cc0c4bf	0.023531316
12	0xbdaae810	-0.08345044
13	0x3d67e0e8	0.05661097
14	0xbcbb461e	-0.022860583
15	0xbda9c6c7	-0.08289867
16	0x3da45fdd	0.08026097
17	0xbc639598	-0.013890646
18	0xbce32f37	-0.027732475
19	0xbcf04ffa	-0.02933501
20	0x3be9aa83	0.0071309223
21	0xbc784345	-0.015152757
22	0xbd6aeb8b	-0.057353538
23	0xbdb9392a	-0.09044106
24	0xbd3488cf	-0.044075783
25	0xbc9e54af	-0.01932749
26	0xbc3f3bf9	-0.011672013
27	0x3cee52fe	0.029092308
28	0xbd23c8d3	-0.039986443
29	0x3ca18330	0.019715875
30	0xbcd38ff7	-0.025825484
31	0xbd329270	-0.043596685
32	0xbca442ca	-0.020051379
33	0xbd5beb7e	-0.05369138
34	0x3d132a8a	0.03592924
35	0xbd3b6d7d	-0.045758713
36	0xbd3fcf2a	-0.046828426
37	0xbddd6d33	-0.10811844
38	0xbcdd43a1	-0.027009787
39	0xbd0b593e	-0.034020655
40	0xbc31fb9a	-0.010863209
41	0x3cdcf990	0.02697447
42	0x3cebd7c0	0.028789401
43	0xbcd5f15a	-0.026116062
44	0xbc556f10	-0.013026968
45	0x3c25228b	0.0100790365
46	0x3d730533	0.05933113
47	0x3d86a97d	0.06575296
48	0x3cc66ae4	0.024220891
49	0xbd0db1c6	-0.034593366
50	0x3d0dcff8	0.034622163
51	0x3c991a1a	0.018689204
52	0x3d946873	0.072464846
53	0x3d762198	0.06009063
54	0x3c6124f5	0.013741721
55	0xbc44411d	-0.011978415
56	0x3c827c9f	0.015928565
57	0x3e1f6f56	0.15569815
58	0xbcb7662c	-0.022387587
59	0xbcf10663	-0.02942199
60	0xbd36a05e	-0.04458653
61	0xbd9c994b	-0.07646426
62	0x3dab80cc	0.083741754
63	0xbd906bf0	-0.070518374
64	0x3c94c7bb	0.018161645
65	0x3c9c6a8a	0.01909377
66	0xbd5c9828	-0.053856045
67	0xbd818d50	-0.06325781
68	0xbac4d215	-0.0015016223
69	0x3d1a6fd6	0.03770431
70	0x3d37ce95	0.044874746
71	0x3b733f0a	0.0037116432
72	0xbc61cff1	-0.013782487
73	0xbd00870c	-0.03137879
74	0x3cc745a4	0.0243252
75	0xbc8c833c	-0.017152421
76	0xbd4dfd38	-0.050290316
77	0xbd35cc10	-0.044384062
78	0x3d7aedcb	0.061261933
79	0xbd742c43	-0.059612524
80	0x3c32d78a	0.010915646
81	0xbc241bd3	-0.010016399
82	0x3c47f89b	0.012205268
83	0xbb23720d	-0.0024939806
84	0x3c4de865	0.012567614
85	0xbc5ee8bf	-0.013605296
86	0xbca806bd	-0.020511026
87	0xbc96b05f	-0.018394647
88	0xbc383098	-0.011242054
89	0xbc1643de	-0.009171454
90	0xbd4c505c	-0.049881324
91	0xbc70b0dd	-0.014690605
92	0xbbfb50f5	-0.007669563
93	0xbd95ad79	-0.07308478
94	0xbd3aef6b	-0.045638483
95	0xbc59dd8f	-0.013297453
96	0xbbcf44ad	-0.0063253255
97	0xbcaf2bf7	-0.021383269
98	0xbc71c13d	-0.014755544
99	0xbd03ddc0	-0.0321939
100	0xbd36fdb9	-0.044675563
101	0xbd39e41f	-0.04538357
102	0x3b3d1aa2	0.0028854986
103	0xbd17b9d6	-0.03704246
104	0xbcaf38e1	-0.021389427
105	0xbcd36f68	-0.025809959
106	0x3a4e19ce	0.00078621216
107	0x3b3f336a	0.0029174932
108	0xbcee2c54	-0.029073872
109	0xbc5833a8	-0.01319591
110	0x3c1700f0	0.009216532
111	0x3cadc39a	0.021211434
112	0xbd847d39	-0.06469197
113	0x3b280e96	0.002564346
114	0x3ba7e1d4	0.0051233564
115	0xbb30c171	-0.0026970769
116	0x3d035cb3	0.032070827
117	0x3d91e661	0.071240194
118	0x3c4b101a	0.012393976
119	0xbbaf1e25	-0.0053441697
120	0xbc8f6ffc	-0.017509453
121	0xbb790405	-0.003799678
122	0xbbf30290	-0.007416077
123	0x3c64275b	0.013925399
124	0xbc82a33c	-0.015946977
125	0xbce2d097	-0.027687354
126	0x3cbf34e2	0.023340646
127	0x3c9b4dbe	0.018957969
128	0xbbf412e4	-0.007448541
129	0xbcfc6788	-0.030811086
130	0x3d2ccea3	0.04218925
131	0xbd24acc1	-0.040203813
132	0xbc89e258	-0.016831562
133	0xbd6fc592	-0.058538027
134	0xbca739bf	-0.020413278
135	0xba80aa76	-0.0009816426
136	0x3d6ee17d	0.05832051
137	0x3ca710df	0.020393787
138	0xbd33f424	-0.043934003
139	0x3d5c4c15	0.053783495
140	0xbd4fe034	-0.050750926
141	0xba21b4ed	-0.00061686226
142	0x3d48be0e	0.049009375
143	0x3da13a98	0.07872504
144	0xbd57b519	-0.052662943
145	0x3cb63fb2	0.02224717
146	0xbbee70c3	-0.007276626
147	0x3d54af98	0.05192527
148	0x3c660403	0.014039042
149	0xbb311ca0	-0.0027025118
150	0x3d1c8e09	0.038221393
151	0x39e20277	0.00043107916
152	0x3bb1e6b0	0.0054291114
153	0xbcea3572	-0.028589938
154	0xbda71af8	-0.08159441
155	0x3cf0bd89	0.029387252
156	0xbccd647a	-0.025072325
157	0x3d70a79a	0.058753587
158	0xbd51fd00	-0.05126667
159	0x3c7a8992	0.015291588
160	0xbcbbb3c5	-0.02291287
161	0xbd97bb73	-0.074088
162	0xbbf575f0	-0.007490866
163	0x3d2d59e5	0.04232206
164	0xbd90c27c	-0.07068345
165	0x3daec207	0.085331015
166	0x3bf5ece0	0.0075050443
167	0xbbb8aa20	-0.005635515
168	0xbe005a0c	-0.1253435
169	0xbd7c034f	-0.061526593
170	0x3d6ee7e8	0.05832663
171	0x3c6836f5	0.014173259
172	0xbaaa3c67	-0.0012987972
173	0x3d1e197f	0.038598534
174	0x3d583b92	0.052791186
175	0x3d9f113f	0.07766961
176	0xbddc1fe8	-0.10748273
177	0xbd847bbb	-0.06468912
178	0x3ccf2282	0.02528501
179	0x3d15bc66	0.036556624
180	0xbd3c92e3	-0.04603852
181	0xbb77f820	-0.0037837103
182	0xbd3cdac2	-0.04610706
183	0xbc518b85	-0.012789612
184	0x3ca6def0	0.020369977
185	0x3d9fb3e5	0.07797984
186	0x3d3b76d4	0.04576762
187	0xbbc133c7	-0.005896065
188	0xbda395b9	-0.07987542
189	0xbdabd2da	-0.08389826
190	0xbd61b4c8	-0.055104047
191	0xbc3ce9dd	-0.011530367
192	0x3bdaf451	0.006681957
193	0x3c93d29e	0.018044766
194	0x3bea3126	0.007146972
195	0x3c55aaa7	0.013041175
196	0xbc521a94	-0.0128237195
197	0xbd0bfae6	-0.034174822
198	0x3ca67e16	0.020323794
199	0xbd9f311f	-0.07773041
200	0xbc1142ab	-0.008865993
201	0xbc99b191	-0.018761428
202	0xbdd3f784	-0.10349944
203	0xbd853039	-0.06503338
204	0x3c28441b	0.010270144
205	0x3c9f2255	0.01942555
206	0x3c9133a0	0.017724812
207	0x3d174054	0.036926582
208	0x3c568143	0.013092342
209	0x3a46fbb2	0.0007590606
210	0xbc2ef051	-0.010677413
211	0xbaca807f	-0.0015449672
212	0xbc1bde1b	-0.009513403
213	0x3c50bc21	0.012740166
214	0xbce3ae0c	-0.027792953
215	0x3c8791a5	0.01654894
216	0xbc08abd1	-0.0083417455
217	0xbbd43b52	-0.006476798
218	0x3d14b3d1	0.0363043
219	0x3ca2581e	0.019817408
220	0xbd5db183	-0.054124366
221	0xbdcdf29e	-0.10056041
222	0x3c8a7be7	0.016904784
223	0xbc7c5ef8	-0.015403502
224	0x3b71b1a2	0.003687956
225	0x3d48239d	0.04886209
226	0x3b391bb5	0.0028245274
227	0xbd1f787f	-0.038933273
228	0xbd05bcee	-0.03265088
229	0x3c9db491	0.01925114
230	0xbc447316	-0.011990329
231	0x3d52f199	0.051499937
232	0xbc8d4d34	-0.017248727
233	0x3da2bd14	0.0794622
234	0x3dec9697	0.1155216
235	0x3cb585b6	0.022158485
236	0x3c03e3eb	0.008049945
237	0x3cfbccb3	0.030737257
238	0xbc15c6e9	-0.009141662
239	0xbc1d106d	-0.009586436
240	0xbccb8652	-0.024844322
241	0xbba55197	-0.0050451267
242	0xbc9efb83	-0.01940704
243	0xbe023acd	-0.12717743
244	0x3c19b2fa	0.00938105
245	0x3d0fe8fe	0.035134308
246	0xbe3e978b	-0.18612497
247	0x3cd73436	0.026270013
248	0x3b5575ae	0.0032571363
249	0x3c7e468b	0.015519748
250	0xbaadab87	-0.0013249972
251	0x3dac780e	0.08421336
252	0xbd38e1ec	-0.04513733
253	0xbcf71e27	-0.030165745
254	0xbc1a684f	-0.009424283
255	0xbd952ed2	-0.07284321

layers.0.fn.fn.proj_in.0.bias f4 [256]
0	0xbc917c3c	-0.017759435
1	0xbd88548b	-0.0665675
2	0xbc3e1273	-0.011601078
3	0xbaacee04	-0.0013193493
4	0xbd2639e0	-0.040582538
5	0xbd7be8ed	-0.061501432
6	0xbc1c3e50	-0.009536341
7	0xbd1ed4e4	-0.038777247
8	0x3d8f341d	0.06992362
9	0xbb3ac9f6	-0.0028501726
10	0xba818f4a	-0.0009884622
11	0x3dae1c86	0.08501534
12	0xbb5026a7	-0.003176132
13	0xba099e9c	-0.000524977
14	0x3b0bf775	0.0021357213
15	0xb9cfbe24	-0.00039623783
16	0x3cfe04b3	0.0310081
17	0x3d0e6427	0.03476348
18	0xbc6337a4	-0.013868246
19	0xbb5512a9	-0.0032512343
20	0x3bda9f2e	0.0066718077
21	0xbbaadb2c	-0.0052141156
22	0x3b0a3e27	0.0021094175
23	0xb9f7d10b	-0.0004726726
24	0x3d1a2629	0.03763405
25	0x3b873ef2	0.0041273767
26	0x3d786ad3	0.06064875
27	0xba7351ac	-0.00092818844
28	0xbb9a281e	-0.0047044894
29	0x3d4a11a3	0.049333226
30	0xbd833844	-0.06407216
31	0xbb1b21ba	-0.0023671226
32	0x3b956815	0.0045595267
33	0xbd753418	-0.059864134
34	0xbc195f8e	-0.009361161
35	0x3c26c285	0.010178213
36	0x3c77fa45	0.0151353525
37	0x3c372a8c	0.011179578
38	0x3bc2dbb2	0.0059466
39	0xbba740b9	-0.005104151
40	0x3bacc527	0.005272526
41	0x3c4ea1f9	0.0126118595
42	0x3b4ec4a7	0.003155032
43	0xbdd97f54	-0.10619989
44	0xbc23ff58	-0.010009609
45	0xbcdb97ee	-0.026805844
46	0x3b02652e	0.0019896734
47	0xbd7c1e49	-0.06155232
48	0x3c02db5e	0.0079868715
49	0x3b6ec5cd	0.0036433816
50	0xbd8a9225	-0.06766156
51	0xbc2a0d24	-0.0103791095
52	0x3b1d3287	0.0023986415
53	0x3d740d90	0.059583247
54	0x35c64440	1.4772013e-06
55	0x3ab7afa0	0.0014014132
56	0xbbb98624	-0.0056617428
57	0xbd3ca960	-0.046059966
58	0x3d1dce08	0.038526565
59	0x3c0b0e2d	0.0084872665
60	0x3c7cd975	0.015432705
61	0xbc3585ae	-0.011079235
62	0xbc90d41b	-0.017679265
63	0x3c266b78	0.0101574585
64	0xbb8fe76c	-0.0043916013
65	0x3c5fd9d2	0.013662772
66	0xbb078024	-0.0020675743
67	0xbd8208cb	-0.063493334
68	0x3ca473c0	0.020074725
69	0x3dade6c0	0.08491278
70	0x39b27044	0.0003403445
71	0xbdb204c0	-0.08692312
72	0x3c115aad	0.008871716
73	0x3d81b83b	0.06333967
74	0x3c90438e	0.017610338
75	0xbbbce1f1	-0.005764239
76	0xbc486e5a	-0.012233341
77	0xbb36d996	-0.0027900687
78	0x3ac41051	0.0014958476
79	0xbc01da20	-0.00792554
80	0xbd7e92b6	-0.062151633
81	0x3b1a0872	0.002350357
82	0x3bd9d960	0.0066482276
83	0x3b7e0da7	0.0038765462
84	0xbb15c51a	-0.0022853077
85	0xbaa40bcd	-0.0012515724
86	0x3d10cd17	0.03535184
87	0xbb8e113e	-0.0043355515
88	0xba9fc6b0	-0.0012189951
89	0xbbf29f27	-0.0074042263
90	0xbdbaa781	-0.0911398
91	0xbbc738aa	-0.006079753
92	0xbbe51b00	-0.006991744
93	0xbdd631b9	-0.104587026
94	0x3d9fee52	0.07809128
95	0xbcb511ea	-0.022103269
96	0xbb0b7348	-0.002127843
97	0xbc835b5a	-0.01603477
98	0xbc3ade98	-0.01140561
99	0x3d00fc4a	0.0314906
100	0xbcdd3d01	-0.027006628
101	0xbb816405	-0.003948691
102	0x3c2bcea0	0.010486275
103	0xbcd5c97f	-0.026097057
104	0xbaa01756	-0.0012213986
105	0x3c7ea21f	0.015541582
106	0xbc2058cc	-0.009786796
107	0xb933dbcf	-0.00017152655
108	0x3b6084b3	0.0034258782
109	0xbd1043a0	-0.035220742
110	0x3befcea4	0.0073183347
111	0xbdc1d1b4	-0.09463826
112	0x3b93d30e	0.0045112437
113	0xbaf1f4dc	-0.0018459815
114	0x3c6d7055	0.014492114
115	0xb8c134c7	-9.212788e-05
116	0xbac29045	-0.0014844021
117	0x3c54d569	0.012990334
118	0x3b0df648	0.0021661688
119	0x39055420	0.00012715207
120	0x3c109f30	0.008827016
121	0x3c2e5f77	0.010642878
122	0xbd1274e9	-0.035756025
123	0x39ab57f8	0.00032681203
124	0xbd6df701	-0.05809689
125	0x3bbaf4d8	0.005705457
126	0x3be418ef	0.00696098
127	0xbb419022	-0.0029535373
128	0x3bb5ef46	0.0055522053
129	0xbbd01134	-0.006349707
130	0xbc07dadb	-0.008291925
131	0x3d66da72	0.05636067
132	0xbc7a65e8	-0.015283085
133	0x3c24229f	0.01001802
134	0x3c94b06f	0.018150536
135	0xbc23302e	-0.009960217
136	0xbbe942cb	-0.007118558
137	0x3c3a2c2b	0.0113630695
138	0xbc9e8638	-0.01935111
139	0xbbd2cf05	-0.00643337
140	0xbca88c22	-0.020574633
141	0xbd13341f	-0.03593838
142	0xba5a4adb	-0.00083271944
143	0xbd24e1cb	-0.040254395
144	0x3c01fdb9	0.007934027
145	0xbb321654	-0.0027173953
146	0xbb4568e8	-0.0030122343
147	0x3c66d7e2	0.014089556
148	0xbc0421c2	-0.008064689
149	0x3d58fa3b	0.052973013
150	0xbca13ebe	-0.019683238
151	0x3d06caed	0.03290837
152	0x3cd8684c	0.02641692
153	0x3bf05863	0.0073347553
154	0xbd078956	-0.033089958
155	0xbd0809b9	-0.033212397
156	0xbc362a17	-0.011118433
157	0xbc597536	-0.013272574
158	0xbbd52674	-0.006504828
159	0xbd161614	-0.03664215
160	0xbb4bea5a	-0.0031115026
161	0x3ace1b01	0.00157246
162	0x3c47ea30	0.012201831
163	0x3d01035c	0.031497344
164	0x3c1d90ff	0.009617089
165	0x3c82843c	0.015932195
166	0xbd09ffbe	-0.03369116
167	0xbd0fd2cd	-0.035113145
168	0x3c90ed1f	0.017691193
169	0x3bd12a11	0.0063831885
170	0xbd1ba9ee	-0.038003854
171	0xbb2707fc	-0.0025486937
172	0xbc021512	-0.007939594
173	0xbc252484	-0.010079507
174	0x3c003cf6	0.007827034
175	0xbb587be8	-0.0033032838
176	0x3c5533a3	0.013012799
177	0x3b6c3080	0.003603965
178	0xbbf1e548	-0.007382069
179	0xbbe14897	-0.0068751085
180	0x3d23c673	0.039984178
181	0x3b0a4432	0.0021097776
182	0x3d0dfcbd	0.034664858
183	0x3c958c6e	0.018255439
184	0xbb4ffa84	-0.0031735012
185	0xbbb66b13	-0.0055669635
186	0x3c44b2db	0.012005533
187	0x3d125d6f	0.035733636
188	0xbafb255f	-0.0019160918
189	0xbaef1b13	-0.0018242322
190	0xbc0418a0	-0.008062512
191	0xbc29adb0	-0.010356352
192	0x3c85c541	0.01632941
193	0x3c6f536a	0.01460729
194	0x3d4cab33	0.049967956
195	0xbbe8640d	-0.007092005
196	0xbc1d3429	-0.0095949555
197	0xbb6b7a73	-0.003593114
198	0x3d76ab9c	0.060222253
199	0x3a807e4e	0.0009803267
200	0xbd9052f2	-0.070470706
201	0xbc94fbfe	-0.018186565
202	0x3b7de32a	0.0038740137
203	0xbcded110	-0.027199298
204	0x3c3cfe14	0.011535186
205	0x3cbd3836	0.023098093
206	0x3a5c993f	0.00084151694
207	0x3b4c3a28	0.0031162594
208	0x3c23778b	0.009977232
209	0x3ce89381	0.028390648
210	0xbc22cc17	-0.009936354
211	0xbc7b7e08	-0.015349872
212	0xbbd01139	-0.0063497094
213	0xbbdcbd4a	-0.006736432
214	0xbc2c6b34	-0.010523606
215	0xbb4f4d9c	-0.0031631952
216	0x3d381d29	0.044949684
217	0xbd24f5ee	-0.0402736
218	0x3b540d21	0.0032356458
219	0xbb83407e	-0.004005491
220	0xbc783ae1	-0.015150757
221	0xbcf14207	-0.02945043
222	0xbc1cdd90	-0.009574309
223	0xbc8f90b8	-0.017525062
224	0xbcebcdde	-0.028784689
225	0xbba342d8	-0.0049823336
226	0xbcd40cbe	-0.025884982
227	0xbc1bc037	-0.009506277
228	0x3b4a06ce	0.003082681
229	0xbd13b35f	-0.036059733
230	0xbc51556f	-0.012776717
231	0x3d8d85ec	0.06910309
232	0xbd182eb6	-0.037153922
233	0xbc2903c6	-0.010315841
234	0xbcb0973c	-0.02155649
235	0xbcbe22f4	-0.023210026
236	0x3d032448	0.032017022
237	0xbc6f88a2	-0.014619978
238	0x3c4c59c9	0.012472578
239	0x3b134cd3	0.002247621
240	0xbc8c72e9	-0.017144637
241	0x3c9c1f9c	0.019058041
242	0x3b80fedf	0.003936633
243	0xbb11a966	-0.0022226213
244	0xbd112109	-0.035431895
245	0xbbe63a8c	-0.0070260223
246	0x3d0332d7	0.032030907
247	0x3d0fb6d1	0.035086457
248	0xbcb5360e	-0.022120502
249	0x3c9d549b	0.019205382
250	0xbb80ec42	-0.003934414
251	0xbc10bd42	-0.008834185
252	0x3bf0ba04	0.0073463935
253	0xbc65ed6b	-0.014033656
254	0xbd0f613c	-0.03500484
255	0x3ccdc5bd	0.025118703

layers.0.fn.fn.sgu.norm.weight f4 [128]
0	0x3cee5515	0.029093305
1	0x3dc4cbf7	0.09609216
2	0x3d1fa533	0.038975906
3	0x3e3222da	0.17396107
4	0x3da2e400	0.07953644
5	0x3d97aba5	0.074057855
6	0x3e08ac7a	0.13347045
7	0x3dc62fd5	0.09677092
8	0x3e39c270	0.18140578
9	0x3d984a7e	0.07436083
10	0x3df1e21b	0.11810704
11	0x3cac922b	0.021065792
12	0x3d8ad3b7	0.06778663
13	0x3e1db978	0.15402782
14	0x3c334e30	0.010943934
15	0x3e13bb2c	0.14426869
16	0x3e546a64	0.2074371
17	0x3e0f595f	0.13998936
18	0x3d1ce41b	0.038303476
19	0x3dbf2d63	0.09334829
20	0x3df41641	0.11918307
21	0x3e22f783	0.1591473
22	0x3e0c3b74	0.13694555
23	0x3df13c61	0.117790945
24	0x3dfde3b1	0.12396944
25	0x3d9a0e79	0.07522292
26	0x3dc0005b	0.09375068
27	0x3dce1421	0.10062433
28	0x3d5c02ca	0.053713597
29	0x3e17b043	0.14813332
30	0x3da67d2d	0.08129344
31	0x3de97fcb	0.11401328
32	0x3c6579c1	0.014006079
33	0x3e029943	0.12753777
34	0x3d950dcf	0.072780244
35	0x3da57c99	0.08080406
36	0x3eb182bb	0.34670052
37	0x3e021f50	0.12707257
38	0x3dd4f9a4	0.10399178
39	0x3dfaa6a4	0.122388154
40	0x3ddb986a	0.1072243
41	0x3dfc98ff	0.12333869
42	0x3e0fe724	0.14053017
43	0x3dfa3e4f	0.12218916
44	0x3df5688d	0.11982832
45	0x3cda58e0	0.026653707
46	0x3dadca74	0.084858805
47	0x3d8eabf8	0.06966394
48	0x3e077789	0.13229193
49	0x3ded49fd	0.11586378
50	0x3dc3fc5f	0.0956962
51	0x3d981e25	0.074276246
52	0x3e105a77	0.1409701
53	0x3d1eea44	0.03879763
54	0x3db4ce7c	0.08828446
55	0x3ceacefc	0.028663151
56	0x3d9feff2	0.07809438
57	0x3d5f8732	0.05457229
58	0x3de3286f	0.110916965
59	0x3e391217	0.18073307
60	0x3e0c0090	0.1367209
61	0x3d005535	0.03133126
62	0x3d953917	0.0728628
63	0x3d8e09eb	0.069354855
64	0x3d9de697	0.07709997
65	0x3e357f70	0.17724395
66	0x3bac952c	0.005266806
67	0x3dbfc51a	0.09363766
68	0xbd1ca057	-0.03823885
69	0x3bd9e556	0.0066496534
70	0x3e002f92	0.12518147
71	0x3d877dfc	0.066158265
72	0x3d89c327	0.067266755
73	0x3da612c5	0.08109049
74	0x3e100df8	0.14067829
75	0x3db6962d	0.089153625
76	0x3e093810	0.13400292
77	0x3deb38d9	0.11485452
78	0x3c93f0bc	0.018059127
79	0x3e00c144	0.12573725
80	0x3e0c224a	0.13684955
81	0x3dbb40fc	0.09143254
82	0x3e02c5b0	0.12770724
83	0x3d711026	0.05885329
84	0xbb84f362	-0.004057334
85	0xbd989c0a	-0.07451637
86	0x3dcabd0e	0.098993406
87	0x3e1c53bd	0.15266319
88	0x3cdc0437	0.026857479
89	0x3e156778	0.14590251
90	0x3dc94383	0.0982733
91	0x3db69b6d	0.08916364
92	0x3cf23c6b	0.029569825
93	0x3dea6a3b	0.11446043
94	0x3da8fd25	0.082514085
95	0x3d5f0d34	0.05445595
96	0x3d42ac59	0.047527645
97	0x3da533e1	0.08066536
98	0x3d270c1a	0.040783025
99	0x3dcb9f06	0.09942441
100	0x3d1710fb	0.03688143
101	0x3e2c8bdc	0.16850227
102	0x3d1ba845	0.03800227
103	0x3d9f9136	0.07791369
104	0x3df26076	0.11834805
105	0x3dfffb4f	0.12499105
106	0x3d392666	0.045202635
107	0x3da2e608	0.07954031
108	0x3dc2e76c	0.095167965
109	0x3da8bd5a	0.08239241
110	0x3da292b4	0.07938138
111	0x3da7d270	0.08194435
112	0x3db14778	0.0865621
113	0x3daaac61	0.0833366
114	0x3d60e314	0.05490406
115	0x3de1ffef	0.110351436
116	0x3dfe164b	0.12406596
117	0x3cc53909	0.024075048
118	0x3dc4f387	0.09616762
119	0x3e0b43b2	0.13600042
120	0x3dded300	0.10880089
121	0x3de2be43	0.11071446
122	0x3dc41a3e	0.09575318
123	0x3c198505	0.009370093
124	0x3dba3840	0.0909276
125	0x3d9aa2c4	0.07550576
126	0x3de9a1aa	0.11407788
127	0x3e43222f	0.19056009

layers.0.fn.fn.sgu.norm.bias f4 [128]
0	0xbcdc0cc3	-0.026861554
1	0x3c15007e	0.009094356
2	0xbd1c5716	-0.03816899
3	0x3e1c5251	0.15265776
4	0x3c8c7832	0.017147157
5	0xbc4dbf5f	-0.012557833
6	0x3d1f2c05	0.03886034
7	0x3c67662d	0.014123482
8	0xbc4822ac	-0.012215298
9	0x3d7d384c	0.061821267
10	0xbdeae198	-0.1146881
11	0xbc9a7a51	-0.018857153
12	0xbdb40744	-0.08790448
13	0xbe10931c	-0.14118618
14	0xbc407b6c	-0.011748176
15	0xbe0047bd	-0.12527366
16	0xbd481366	-0.048846625
17	0xbb8ae59a	-0.0042387964
18	0x3c3b8f0c	0.011447679
19	0x3d27426e	0.040834837
20	0x3c942a59	0.0180866
21	0x3e14dd0c	0.14537448
22	0xbe1af241	-0.15131475
23	0x3e0c615f	0.13709019
24	0x3d26cd60	0.040723205
25	0x3ca19ba9	0.019727545
26	0x3d5bacb4	0.0536315
27	0xbdb8c430	-0.09021795
28	0xbc1f580d	-0.009725583
29	0x3c0908ae	0.008363886
30	0x3b45f370	0.0030204915
31	0xbd8f04e0	-0.06983352
32	0x3de8a1e6	0.11359005
33	0xbcf1d988	-0.029522672
34	0x3cfd9cfe	0.030958649
35	0x3da649f4	0.08119574
36	0xbda71575	-0.081583895
37	0x3bf3dcdf	0.0074421014
38	0xbc2f7e11	-0.010711209
39	0xbda27d5d	-0.079340674
40	0x3d360bd1	0.044444863
41	0xbcd71d02	-0.02625895
42	0xbdf72051	-0.12066711
43	0xbc20a6c6	-0.009805387
44	0xbccc799c	-0.024960332
45	0xbca95882	-0.020672087
46	0x3d1cc8c3	0.0382774
47	0x3b8844ef	0.004158608
48	0xbc8ac4d9	-0.016939567
49	0x3bfcbc52	0.007712879
50	0x3b82327d	0.003973304
51	0x3c44d8cb	0.012014578
52	0x3e0b37fb	0.13595574
53	0xbbfadad8	-0.0076554827
54	0x3dde2681	0.10847188
55	0x3d9440e7	0.07238942
56	0x3bfea7c1	0.0077714627
57	0x3c4f9e90	0.012672082
58	0x3cfd68d9	0.030933784
59	0x3de7c86d	0.11317525
60	0x3c550608	0.013001926
61	0x3d0c5f14	0.03427036
62	0x3cd55850	0.026043087
63	0xbdba0652	-0.09083237
64	0xbbe931cc	-0.007116532
65	0xbc1275e2	-0.008939238
66	0x3d8a154d	0.06742344
67	0x3c9f76ad	0.019465769
68	0x3db7f09b	0.08981439
69	0xbc557adc	-0.01302978
70	0x3e075856	0.13217291
71	0xbba32c25	-0.0049796277
72	0xbd054eb3	-0.032545757
73	0x3dca3c78	0.09874815
74	0x3d840025	0.0644534
75	0xbd3467fa	-0.044044472
76	0x3e09d547	0.13460265
77	0x3d9641e5	0.07336787
78	0x3d8173e1	0.0632093
79	0xbbcc3cd3	-0.0062328367
80	0xbd1cbf41	-0.03826833
81	0x3da6cea0	0.08144879
82	0x3ce3b450	0.02779594
83	0xbcf81121	-0.030281605
84	0x3d8fd2db	0.07022639
85	0x3d4cf05e	0.05003392
86	0x3d14d58c	0.036336467
87	0x3bf99565	0.007616686
88	0x3dd8f431	0.10593451
89	0xbde685e3	-0.112560056
90	0xbc49b19a	-0.01231041
91	0x3c83fda3	0.016112154
92	0xbc47afbc	-0.012187894
93	0x3d0fe11f	0.0351268
94	0x3c329d78	0.010901801
95	0xba02ff0c	-0.00049971114
96	0xbd7b955d	-0.06142174
97	0x3c9cbf81	0.019134285
98	0xbb823e91	-0.0039747437
99	0x3ca4b313	0.02010492
100	0xbcae0f00	-0.021247387
101	0xbe0075d6	-0.12544951
102	0xbd8ae71e	-0.06782363
103	0x3e3d286b	0.1847245
104	0xbd9283e4	-0.071540624
105	0x3cc147da	0.023593832
106	0xbd1b74b4	-0.037953094
107	0xbdc156e1	-0.09440399
108	0x3db62b46	0.088949725
109	0x3ca5dc49	0.020246642
110	0x3d6d414b	0.057923596
111	0x3bc507df	0.006012901
112	0x3d16df1c	0.036833867
113	0x3da50034	0.08056679
114	0xbd6d9768	-0.05800572
115	0x3d23d4f5	0.039998014
116	0xbdcd7ebc	-0.10033938
117	0x3a24e95f	0.00062908785
118	0x3db2edae	0.0873674
119	0x3da426a1	0.080151804
120	0x3ce2cd1e	0.027685698
121	0x3dac1916	0.08403222
122	0xbba986af	-0.0051735262
123	0x3d50137e	0.05079984
124	0xbb3edb52	-0.0029122424
125	0xbdb65c83	-0.08904364
126	0xbd3d9752	-0.04628689
127	0x3df68f21	0.120390184

layers.0.fn.fn.sgu.proj.weight f4 [98, 98, 1]
0	0x3f723669	0.94614273
1	0x3f31de36	0.6947969
2	0x3ec92d4c	0.3929237
3	0x3e75e758	0.24014032
4	0x3e217479	0.15767087
5	0x3d987e17	0.07445925
6	0x3d98ab5f	0.074545614
7	0x3d4babc7	0.049724367
8	0x3d5bee2d	0.05369394
9	0x3cacf1b8	0.021111354
10	0x3b635368	0.0034687165
11	0xbb6dee4e	-0.003630537
12	0x3bbab11b	0.005697382
13	0x3c8b36cd	0.016993904
14	0x3cab33de	0.020898756
15	0x3cbf1f71	0.023330422
16	0x3c6216d6	0.01379939
17	0x3c74f62a	0.014951268
18	0x3b531dc2	0.0032213782
19	0x3d0462f4	0.03232093
20	0x3b7a0374	0.003814903
21	0xbba9c085	-0.005180421
22	0xbb612fff	-0.0034360883
23	0x3c8780ac	0.016540848
24	0x3d879641	0.066204555
25	0x3cef1492	0.029184613
26	0x3cff27d9	0.03114693
27	0x3c720d86	0.014773732
28	0x39ac6893	0.0003288431
29	0x3c6b2437	0.014351896
30	0x3c4de560	0.012566894
31	0x3c466b84	0.012110595
32	0x3aa3ded3	0.001250232
33	0xbbcb5a82	-0.0062058577
34	0xbafbb40a	-0.0019203436
35	0x3bb925ca	0.0056502568
36	0x3c98928e	0.01862457
37	0x3cbb6eef	0.022880046
38	0x3ca0b0f1	0.019615622
39	0x3c8e2d3c	0.017355554
40	0x3cbc93a4	0.02301962
41	0x3c3c7bdf	0.011504143
42	0xbc16e385	-0.009209518
43	0x3c8b6fc5	0.01702107
44	0x3bff2059	0.0077858386
45	0xbb9f7fac	-0.0048675146
46	0x3c93ef7d	0.018058533
47	0x3bad265f	0.005284115
48	0x3b603e52	0.0034216833
49	0xbba2d13d	-0.004968791
50	0x3ad0eb40	0.0015939251
51	0x3cc5560f	0.024088887
52	0x3d477717	0.048697557
53	0x3d076a8d	0.0330606
54	0x3b8b9ea7	0.004260856
55	0x3c378385	0.01120079
56	0x3c0a118f	0.008427038
57	0x3c118751	0.00888236
58	0x3d136eea	0.035994448
59	0x3c66a18a	0.0140766
60	0xbb163cd6	-0.0022924445
61	0x3cc08f12	0.023505721
62	0x3bda39c3	0.0066597178
63	0xbb147656	-0.0022653542
64	0x3c3b17eb	0.011419277
65	0x3bfd0a69	0.0077221883
66	0x3c823fc4	0.015899546
67	0x3ce6492a	0.02811106
68	0x3d0e60b4	0.034760192
69	0x3cfb7526	0.03069551
70	0x3c5e6785	0.013574486
71	0x3cb58c5a	0.022161651
72	0x3cd929ba	0.026509155
73	0x3ba3d14c	0.0049993154
74	0xbc259222	-0.010105642
75	0x3cd5692a	0.026051123
76	0x3c8c5229	0.01712902
77	0xbc077c1b	-0.008269335
78	0x3b667d36	0.0035169846
79	0x3c9fe04f	0.019516138
80	0x3ca3f4be	0.020014163
81	0x3c8210b8	0.015877113
82	0x3c8549e4	0.016270585
83	0xbb3298a1	-0.0027251618
84	0x3ad812bd	0.0016485077
85	0x3b638be6	0.0034720837
86	0x3cfff235	0.031243423
87	0x3cb23b62	0.021756832
88	0x3ce33590	0.027735502
89	0x3cc3ce01	0.023901941
90	0x3c860f91	0.016364845
91	0x3c28de94	0.010306973
92	0x3c481e82	0.012214305
93	0x3ce76b25	0.028249333
94	0x3bcf8151	0.0063325544
95	0x3c8a83c4	0.016908534
96	0x3d3a47e1	0.045478705
97	0x3dab5a0f	0.08366787
98	0x3f7e5f32	0.99364007
99	0x3f0d5a20	0.55215645
100	0x3eefa9a5	0.46809116
101	0x3e9f71c7	0.31141493
102	0x3e4d3ca7	0.20042668
103	0x3e02c8fa	0.12771979
104	0x3cd7c6a5	0.026339838
105	0x3d88e5ff	0.06684493
106	0x3d184554	0.03717549
107	0x3cea4433	0.028596973
108	0x3cd1d0d6	0.025612276
109	0x3bb0e940	0.0053988993
110	0x3c2efb0c	0.010679971
111	0x3c6646bc	0.01405495
112	0x3cd8bc41	0.026456954
113	0x3c5df2d2	0.013546662
114	0x3c62162d	0.013799232
115	0x3b2dc185	0.0026513052
116	0x3c91e07b	0.017807236
117	0x3bb40bff	0.005494594
118	0xbbcca043	-0.0062446906
119	0x3aa18637	0.0012323324
120	0x3c167b91	0.009184734
121	0x3cb68631	0.022280784
122	0x3d6a24b4	0.05716391
123	0x3ce2f743	0.027705794
124	0x3c59c4d4	0.013291556
125	0x3c04b2ef	0.008099302
126	0x3c1ea4ea	0.009682873
127	0x3c3a7681	0.011380793
128	0x3c7024ab	0.01465718
129	0x3be091af	0.0068533043
130	0x3bc6b9ef	0.0060646455
131	0x3c841705	0.016124258
132	0x3c5fc004	0.01365662
133	0x3c3797a5	0.0112055885
134	0x3c5699cb	0.013098191
135	0x3cc2a567	0.02376051
136	0x3c1d6e1f	0.009608774
137	0x3c7e083d	0.015504894
138	0xba56acc6	-0.00081891974
139	0xbbbec59e	-0.0058218976
140	0x3c44a7a7	0.012002862
141	0x3cd916cc	0.026500128
142	0x3d0215d6	0.031759106
143	0x3c83414f	0.016022353
144	0xbbac7c69	-0.0052638543
145	0xbaf8efa8	-0.0018992322
146	0x3be71128	0.0070516057
147	0x3ad26040	0.0016050413
148	0x3c788d8c	0.015170466
149	0x3ca58909	0.020206945
150	0x3cec9d50	0.028883606
151	0x3cc4cfb4	0.024024822
152	0xbb617d3d	-0.0034406923
153	0xbbe9b4b2	-0.0071321363
154	0xbb51c222	-0.0032006581
155	0x3b4fb241	0.003169194
156	0x3c3fc5e2	0.011704894
157	0x3c6944cf	0.014237597
158	0x3b83cb26	0.00402202
159	0x3cd3bdd0	0.025847346
160	0x3bbeb294	0.005819628
161	0xba55705f	-0.000814205
162	0x3a136441	0.0005622544
163	0xbb8f1a95	-0.0043671825
164	0x3ba52213	0.0050394624
165	0x3c49655d	0.012292233
166	0x3c9a642c	0.018846594
167	0x3c3461e5	0.011009668
168	0x3c43a129	0.011940279
169	0x3c6b0e4a	0.0143466685
170	0x3cafbb9f	0.02145177
171	0xbbd8befe	-0.006614565
172	0x3b763e61	0.0037573802
173	0x3cf227b2	0.029559944
174	0x3c7e7f19	0.015533232
175	0x3c3b8d48	0.011447258
176	0xbc4a2d16	-0.012339851
177	0x3b81c9e7	0.003960836
178	0x3c127aab	0.008940379
179	0x3c70bd86	0.014693623
180	0x3c4f4463	0.012650582
181	0x3c6c72ca	0.014431665
182	0x3bd8165f	0.0065944637
183	0x3c1b98ad	0.00949685
184	0x3c100116	0.008789321
185	0x3c454ed3	0.012042719
186	0x3cfaa4d9	0.030596184
187	0x3d0bc032	0.03411884
188	0x3b519d52	0.003198464
189	0x3b8236ef	0.0039738338
190	0xbc85aa8f	-0.01631668
191	0x3ae09963	0.0017135557
192	0x3b8f6a62	0.0043766955
193	0x3c74728d	0.014919889
194	0x3d06cb6a	0.032908835
195	0x3d91be6a	0.07116397
196	0x3f5ad008	0.8547368
197	0x3f270308	0.65239
198	0x3eb4dd50	0.35325098
199	0x3ed7828a	0.4209178
200	0x3e9fda3d	0.3122119
201	0x3e57b779	0.21066083
202	0x3df4b893	0.11949267
203	0x3d78f6a1	0.06078208
204	0x3d7fcdd0	0.062452137
205	0x3d1dc7b1	0.03852052
206	0x3c7b750d	0.015347731
207	0x3cbe995a	0.023266483
208	0x3cdce11d	0.026962811
209	0x3c239d64	0.009986255
210	0x3cde502b	0.027137836
211	0x3c863fd5	0.01638786
212	0x3cb16707	0.021655573
213	0x3ce69670	0.028147906
214	0x3c91f5bb	0.017817369
215	0x3caa3662	0.020777885
216	0x3c4684cc	0.012116622
217	0xbbf6db09	-0.0075334352
218	0xbc75dfd9	-0.015006983
219	0x3caa78cd	0.020809555
220	0x3d805fd2	0.06268276
221	0x3d1bb94f	0.03801852
222	0x3ce2ee0b	0.027701398
223	0x3c34c78f	0.011033907
224	0x3ca47966	0.020077419
225	0x3cee6280	0.029099703
226	0x3cc52104	0.024063595
227	0x3d02386a	0.031792082
228	0x3bb181d6	0.005417089
229	0x3c55579e	0.013021378
230	0x3c0527d9	0.008127176
231	0x3c6d182c	0.014471095
232	0x3ca37d9d	0.019957358
233	0x3c849ece	0.016189005
234	0x3c4f1d07	0.012641198
235	0xba8134d8	-0.0009857668
236	0x3bd2c530	0.006432198
237	0x3ba98cb3	0.0051742434
238	0x3c46e0c6	0.012138551
239	0x3cf7dc94	0.030256547
240	0x3c8954cb	0.016764065
241	0x3baee940	0.005337864
242	0x3cc01888	0.023449197
243	0x3c015070	0.007892713
244	0x3c7ed818	0.01555445
245	0x3c0efdd3	0.008727509
246	0x3a0a9cd3	0.0005287651
247	0x3cbc6de3	0.023001617
248	0x3c8ffc65	0.017576406
249	0x3cd60309	0.026124494
250	0x3c148255	0.009064277
251	0x3bb007f4	0.005372042
252	0xba8cfeaf	-0.0010757054
253	0x3c57658b	0.013146768
254	0x3cb5899c	0.022160344
255	0x3cc0ec6c	0.023550235

layers.0.fn.fn.sgu.proj.bias f4 [98]
0	0xbd35e0e0	-0.04440391
1	0x3e16f3b0	0.14741397
2	0xbd84d83c	-0.06486556
3	0x3e126a81	0.1429844
4	0xbd8bd444	-0.06827596
5	0x3e135e67	0.1439148
6	0xbd83d8c0	-0.06437826
7	0x3e162f8d	0.14666577
8	0xbda0e721	-0.07856584
9	0x3e1eff89	0.15527166
10	0x3de7388a	0.11290081
11	0xbdaf3cbb	-0.08556505
12	0x3e1df9ac	0.15427274
13	0xbd8f14ac	-0.06986365
14	0x3e1f8662	0.15578607
15	0xbd97ef0d	-0.07418642
16	0x3e21d1c7	0.1580268
17	0xbd9a3c7c	-0.07531068
18	0x3e217e91	0.15770938
19	0xbd9f3a9e	-0.07774852
20	0x3e22a2ca	0.15882412
21	0xbd9e5a9c	-0.07732126
22	0x3e209a52	0.15683869
23	0xbda67b19	-0.08128948
24	0x3e2d0b6a	0.16898885
25	0xbd7196eb	-0.058981817
26	0xbd9aaa19	-0.07551975
27	0x3e2fe138	0.17175758
28	0xbda66654	-0.08124986
29	0x3e25f56d	0.16206904
30	0xbda23cc4	-0.079217464
31	0x3e272d84	0.16325957
32	0xbda36dc3	-0.0797992
33	0x3e26f3b0	0.16303897
34	0xbda4fdfa	-0.08056255
35	0x3e26c366	0.16285476
36	0xbda0b8a0	-0.078477144
37	0x3e27a764	0.16372448
38	0xbda25c86	-0.07927804
39	0x3e254147	0.16138183
40	0xbda36d79	-0.079798646
41	0x3e24b4de	0.1608462
42	0xbda4a7cd	-0.08039818
43	0x3e312e02	0.17302707
44	0xbd82bb7b	-0.06383415
45	0xbd999b3e	-0.07500313
46	0x3e30d4cd	0.17268677
47	0xbda20574	-0.07911196
48	0x3e261755	0.16219838
49	0xbda180e1	-0.0788591
50	0x3e25d5b5	0.16194804
51	0xbd9fbab6	-0.07799284
52	0x3e24bcd4	0.16087657
53	0xbda402b2	-0.080083266
54	0x3e2f5767	0.17123185
55	0xbd8432d6	-0.06455009
56	0xbd9a244a	-0.07526453
57	0x3e2d340e	0.16914389
58	0xbda10f43	-0.07864239
59	0x3e25d56e	0.16194698
60	0xbd9ea3eb	-0.077461086
61	0x3e24df60	0.16100836
62	0xbda3ddbc	-0.08001277
63	0x3e25904e	0.16168329
64	0xbd9e30cb	-0.0772415
65	0x3e24cc6d	0.16093607
66	0xbda05b99	-0.07829971
67	0x3e26619c	0.16248173
68	0xbd9d21ce	-0.07672463
69	0x3e22b001	0.15887453
70	0xbda53cf2	-0.08068265
71	0x3e20ef60	0.15716314
72	0xbd9c95b5	-0.07645742
73	0x3e225307	0.15851985
74	0xbd9a76ba	-0.075421765
75	0x3e2046e6	0.15652046
76	0xbd9abde9	-0.07555754
77	0x3e23cd2c	0.15996236
78	0xbd95a7b1	-0.07307375
79	0x3e1f2ffb	0.15545647
80	0xbd9810a7	-0.07425051
81	0x3e1f4bb3	0.1555622
82	0xbd98b1d4	-0.07455793
83	0x3e1deef0	0.15423179
84	0xbda04542	-0.0782571
85	0x3e1f71ec	0.15570801
86	0xbd8f6982	-0.07002546
87	0x3e2005da	0.15627232
88	0xbda9f14a	-0.08297975
89	0x3e267c09	0.16258253
90	0xbd20f58c	-0.03929667
91	0xbd8db665	-0.069195546
92	0x3e250830	0.16116405
93	0xbd94e289	-0.07269771
94	0x3e1768d4	0.14786083
95	0xbd9ea973	-0.077471636
96	0x3e208a98	0.1567787
97	0xbd43a8a3	-0.047768246

layers.0.fn.fn.proj_out.weight f4 [64, 128]
0	0x3decbcf7	0.1155948
1	0xbcacb2d2	-0.021081362
2	0xbd4feafb	-0.050761204
3	0x3c28b054	0.010295946
4	0x3d218c08	0.039440185
5	0xbd86e7bf	-0.06587171
6	0x3c588c0b	0.013216983
7	0xbd48c624	-0.049017087
8	0x3c39cfe1	0.011341066
9	0xbb9107c7	-0.004425976
10	0xbcb954e2	-0.022623483
11	0xbc18f89a	-0.009336615
12	0xbd83f55b	-0.06443282
13	0x3d18cc9c	0.037304506
14	0xbe08dd95	-0.13365777
15	0x3c64a65b	0.013955678
16	0xbd98afd9	-0.07455415
17	0xbcb931c1	-0.022606732
18	0xbcc69a02	-0.024243359
19	0xbc963214	-0.018334426
20	0x3d192db2	0.037397094
21	0x3daf283f	0.08552598
22	0xbc84c97d	-0.016209358
23	0xbd96a54f	-0.07355749
24	0xbd43f438	-0.047840327
25	0x3c36fc72	0.011168586
26	0xbc6d8363	-0.014496657
27	0x3d0ada86	0.033899806
28	0x3df5b895	0.11998097
29	0x3c9f4d86	0.019446146
30	0xbc190cf9	-0.009341472
31	0x3cc030ed	0.02346083
32	0xbd36a180	-0.044587612
33	0x3d806098	0.06268424
34	0x3dae9e24	0.08526257
35	0x3b777fb8	0.0037765335
36	0x3abfd4d1	0.0014635568
37	0xbd3e0993	-0.04639585
38	0x3cf58216	0.029969256
39	0xbd082608	-0.033239394
40	0xbc838e8c	-0.016059183
41	0x3a08e5a6	0.00052222086
42	0x3c34ec52	0.011042671
43	0x3defc771	0.11707962
44	0x3cf15c21	0.029462876
45	0x3cc12159	0.023575472
46	0x3ca7172b	0.02039679
47	0x3da6cb6e	0.0814427
48	0xbdba8fd5	-0.09109465
49	0xbb66155a	-0.0035107941
50	0xbcad587f	-0.021160362
51	0x3cd7c14a	0.026337285
52	0xbd4b7a29	-0.049677048
53	0xbc3baaa4	-0.011454258
54	0x3bfb3575	0.0076662847
55	0x3d8868e7	0.066606335
56	0xbd136e2c	-0.03599374
57	0x3c5dd6b9	0.013539963
58	0xbd10f7ed	-0.03539269
59	0xbcafc5bd	-0.021456594
60	0x3c0bb336	0.008526614
61	0x3cedf697	0.029048247
62	0xbd832600	-0.06403732
63	0xbd60ab7a	-0.054851033
64	0x3d0b2c86	0.033978008
65	0xbd18906f	-0.037247118
66	0x3dea8563	0.11451223
67	0x3d0adcd8	0.03390202
68	0xbd1c8ce5	-0.038220305
69	0x3da14f91	0.07876504
70	0xbacbd512	-0.0015551171
71	0xb78fe24a	-1.7152302e-05
72	0xbc9d6ad7	-0.019215984
73	0xbc863653	-0.016383326
74	0xbd63eac2	-0.055643804
75	0x3da294ee	0.07938562
76	0xbc752b73	-0.014963972
77	0x3d80b790	0.06285012
78	0x3d5374a3	0.051624905
79	0x3b970638	0.0046088956
80	0xbd050d36	-0.032483302
81	0x3db7b564	0.089701444
82	0xbd37538c	-0.04475741
83	0x3c692a7a	0.014231319
84	0xbe75e9cd	-0.24014969
85	0x3d804c4d	0.06264553
86	0x3d6b007f	0.05737352
87	0xbd2843f6	-0.041080438
88	0x3d29dc20	0.041469693
89	0xbd80cd76	-0.062891886
90	0x3d988658	0.07447499
91	0xbd4153b4	-0.047198966
92	0xbe0f53b9	-0.13996781
93	0xbd46ccc1	-0.048535112
94	0x3b82180a	0.003970151
95	0xbd16c23e	-0.036806338
96	0x3d04ffe9	0.032470617
97	0x3cc6c037	0.024261577
98	0x3dec5ec2	0.11541511
99	0x3cfd5c47	0.03092779
100	0xbcf206bd	-0.029544229
101	0x3c6d187f	0.014471172
102	0x3cb60c44	0.022222646
103	0xbdda16b0	-0.106488585
104	0x3b91e06c	0.004451802
105	0x3c948f12	0.018134627
106	0x3c4a7d7a	0.0123590175
107	0xbc810dcf	-0.015753655
108	0xbc983b65	-0.018583009
109	0xbdb9088b	-0.090348326
110	0xbbbdf1e5	-0.0057966583
111	0xbd4289c6	-0.047494672
112	0xbb0f4222	-0.0021859487
113	0x3cff1be5	0.03114123
114	0x3cf23615	0.029566804
115	0xbd83bd83	-0.06432631
116	0xbd7f441c	-0.062320814
117	0x3c7c008e	0.015380992
118	0x37850478	1.5856916e-05
119	0x3c96b3aa	0.018396217
120	0xbcc5819f	-0.02410966
121	0x3ca6f2dd	0.020379478
122	0xbc690550	-0.014222458
123	0xbe072aad	-0.13199873
124	0x3cca4e4c	0.024695538
125	0x3d91df74	0.071226984
126	0xbe021a37	-0.12705313
127	0x3c60ffa4	0.0137328245
128	0x3d4242ce	0.04742699
129	0x3d2cde0d	0.04220395
130	0xbd927b85	-0.07152466
131	0x3e392f52	0.18084458
132	0xbb641ddd	-0.003480784
133	0x3c79dcf4	0.015250433
134	0x3cbad847	0.022808207
135	0x3d6c9df0	0.05776781
136	0xbad5446a	-0.0016270999
137	0xbd1ba0d6	-0.037995182
138	0xbd20f4db	-0.039296012
139	0xb978a07f	-0.00023710913
140	0x3ae635fc	0.0017563696
141	0x3d8d49aa	0.06898816
142	0xbdabbde8	-0.08385831
143	0xbd932416	-0.07184617
144	0xbdb89285	-0.090123214
145	0xbd37adac	-0.04484336
146	0xbda7d5e6	-0.08195095
147	0x3cef1532	0.029184911
148	0x3d91ab47	0.07112747
149	0x3d13408e	0.035950236
150	0xbd974141	-0.07385493
151	0x3dabc3ed	0.08386979
152	0x3cec0b3c	0.02881395
153	0x3e00f464	0.12593228
154	0x3d03d66b	0.032186907
155	0x3d8f0883	0.06984045
156	0x3daa779f	0.08323597
157	0x3b7d04f4	0.0038607689
158	0xbd331c99	-0.043728445
159	0x3cfaee39	0.030631172
160	0x3d39d81a	0.045372106
161	0x3c8cf6a6	0.017207455
162	0x3c93bb6d	0.018033708
163	0x3dad94c8	0.084756434
164	0xbd8a54c1	-0.06754447
165	0x3dbd22be	0.09235142
166	0x3c33ab4e	0.010966135
167	0xbd75b4eb	-0.05998699
168	0x3c354f75	0.011066307
169	0xbc4e9c02	-0.012610437
170	0x3d3bd0ba	0.045853354
171	0x3c5bc041	0.013412536
172	0x3da717f7	0.08158868
173	0xbccb13c7	-0.024789704
174	0x3d562340	0.05227971
175	0xbcece32c	-0.028916918
176	0xbcf0599c	-0.029339604
177	0x3d869b45	0.06572584
178	0x3c7abc95	0.0153037505
179	0xbba3e32b	-0.0050014458
180	0xbc27106a	-0.0101967845
181	0x3d54d3aa	0.05195967
182	0xbd8e958a	-0.06962116
183	0x3be094f4	0.006853694
184	0xbd263dca	-0.04058627
185	0xbd24cf7c	-0.040236935
186	0xbc93167c	-0.017955057
187	0xbd59e005	-0.053192157
188	0x3d7ef31f	0.062243577
189	0xbce51ec8	-0.02796878
190	0xbd25e1c7	-0.04049852
191	0xbd1cd0ec	-0.03828518
192	0xbc152b11	-0.009104506
193	0xbd9b9d69	-0.07598383
194	0x3d6a0c6d	0.057140756
195	0x3cc13bc8	0.023588076
196	0x3da8029b	0.08203622
197	0x3d5ba4ee	0.053624086
198	0x3cb209cb	0.021733185
199	0x3c536931	0.012903498
200	0x3c75a75a	0.014993513
201	0x3dafa0f9	0.08575625
202	0x3b0920c2	0.0020924066
203	0x3d5489a2	0.05188907
204	0x3de75d30	0.11297071
205	0xbccd88bf	-0.02508962
206	0x3b6fc39c	0.0036585098
207	0x3cc722e3	0.024308627
208	0xbd40b04e	-0.047043137
209	0x3d1c47d5	0.038154442
210	0xbc3cb6da	-0.011518205
211	0xbd89e468	-0.06733018
212	0xbd844a6b	-0.064595066
213	0xbc6e6827	-0.014551199
214	0xbc9fccc6	-0.019506823
215	0xbd698887	-0.05701497
216	0x3d8160d6	0.06317298
217	0xbd91dae3	-0.071218275
218	0x3d178751	0.036994282
219	0x3d83cfa9	0.064360924
220	0x3c95527e	0.018227812
221	0x3db46323	0.08807971
222	0xbbce97b4	-0.0063047055
223	0xbace63c8	-0.001574629
224	0xbd06fcbd	-0.032955874
225	0xbcaae7b2	-0.020862434
226	0xbc5c0a38	-0.013430171
227	0x3b6805d6	0.003540387
228	0xbd0011b8	-0.031266898
229	0x3d9536c7	0.072858386
230	0x3cce78a6	0.025204014
231	0x3e2171f4	0.15766126
232	0xbd2df080	-0.042465687
233	0xbd05041e	-0.03247463
234	0x3cb47ef4	0.022033192
235	0xbdb1c384	-0.0867987
236	0x3d2587b8	0.040412635
237	0x3bb69d2a	0.0055729346
238	0x3d93732e	0.07199703
239	0xbb46e595	-0.0030349244
240	0x3d0038e2	0.031304248
241	0xbd5f8bf8	-0.054576844
242	0x3cfb246e	0.03065702
243	0x3c42b5e1	0.011884184
244	0xbca684c7	-0.020326985
245	0xbe0b53c5	-0.13606174
246	0x3da93d80	0.08263683
247	0x3d511e86	0.0510545
248	0xbd8d11c7	-0.068881564
249	0xbcce67c5	-0.025195966
250	0x3ccdd312	0.02512506
251	0xbc5ce665	-0.013482665
252	0x3b9ad2f1	0.004724853
253	0xbba1be52	-0.004936018
254	0xbcf11809	-0.029430406
255	0xbd85e711	-0.06538213
